[2019-07-12 06:57:24,366 INFO] Loading dataset from data/cnndm/CNNDM.train.0.pt
[2019-07-12 06:58:16,441 INFO] number of examples: 99886
[2019-07-12 07:02:24,962 INFO]  * src vocab size = 50004
[2019-07-12 07:02:24,962 INFO]  * tgt vocab size = 50004
[2019-07-12 07:02:24,962 INFO] Building model...
[2019-07-12 07:02:29,058 INFO] NMTModel(
  (encoder): RNNEncoder(
    (embeddings): Embeddings(
      (make_embedding): Sequential(
        (emb_luts): Elementwise(
          (0): Embedding(50004, 128, padding_idx=1)
        )
      )
    )
    (rnn): LSTM(128, 256, bidirectional=True)
    (bridge): ModuleList(
      (0): Linear(in_features=256, out_features=256, bias=True)
      (1): Linear(in_features=256, out_features=256, bias=True)
    )
  )
  (decoder): InputFeedRNNDecoder(
    (embeddings): Embeddings(
      (make_embedding): Sequential(
        (emb_luts): Elementwise(
          (0): Embedding(50004, 128, padding_idx=1)
        )
      )
    )
    (dropout): Dropout(p=0.0)
    (rnn): StackedLSTM(
      (dropout): Dropout(p=0.0)
      (layers): ModuleList(
        (0): LSTMCell(640, 512)
      )
    )
    (attn): GlobalAttention(
      (linear_context): Linear(in_features=512, out_features=512, bias=False)
      (linear_query): Linear(in_features=512, out_features=512, bias=True)
      (v): Linear(in_features=512, out_features=1, bias=False)
      (linear_out): Linear(in_features=1024, out_features=512, bias=True)
    )
  )
  (generator): CopyGenerator(
    (linear): Linear(in_features=512, out_features=50004, bias=True)
    (linear_copy): Linear(in_features=512, out_features=1, bias=True)
  )
)
[2019-07-12 07:02:29,059 INFO] encoder: 7322624
[2019-07-12 07:02:29,059 INFO] decoder: 35466581
[2019-07-12 07:02:29,059 INFO] * number of parameters: 42789205
[2019-07-12 07:02:29,206 INFO] Starting training on GPU: [0]
[2019-07-12 07:02:29,206 INFO] Start training loop and validate every 10000 steps...
[2019-07-12 07:15:44,941 INFO]  * src vocab size = 50004
[2019-07-12 07:15:44,941 INFO]  * tgt vocab size = 50004
[2019-07-12 07:15:44,941 INFO] Building model...
[2019-07-12 07:15:49,055 INFO] NMTModel(
  (encoder): RNNEncoder(
    (embeddings): Embeddings(
      (make_embedding): Sequential(
        (emb_luts): Elementwise(
          (0): Embedding(50004, 128, padding_idx=1)
        )
      )
    )
    (rnn): LSTM(128, 256, bidirectional=True)
    (bridge): ModuleList(
      (0): Linear(in_features=256, out_features=256, bias=True)
      (1): Linear(in_features=256, out_features=256, bias=True)
    )
  )
  (decoder): InputFeedRNNDecoder(
    (embeddings): Embeddings(
      (make_embedding): Sequential(
        (emb_luts): Elementwise(
          (0): Embedding(50004, 128, padding_idx=1)
        )
      )
    )
    (dropout): Dropout(p=0.0)
    (rnn): StackedLSTM(
      (dropout): Dropout(p=0.0)
      (layers): ModuleList(
        (0): LSTMCell(640, 512)
      )
    )
    (attn): GlobalAttention(
      (linear_context): Linear(in_features=512, out_features=512, bias=False)
      (linear_query): Linear(in_features=512, out_features=512, bias=True)
      (v): Linear(in_features=512, out_features=1, bias=False)
      (linear_out): Linear(in_features=1024, out_features=512, bias=True)
    )
  )
  (generator): CopyGenerator(
    (linear): Linear(in_features=512, out_features=50004, bias=True)
    (linear_copy): Linear(in_features=512, out_features=1, bias=True)
  )
)
[2019-07-12 07:15:49,057 INFO] encoder: 7322624
[2019-07-12 07:15:49,059 INFO] decoder: 35466581
[2019-07-12 07:15:49,059 INFO] * number of parameters: 42789205
[2019-07-12 07:15:49,215 INFO] Starting training on GPU: [0]
[2019-07-12 07:15:49,216 INFO] Start training loop and validate every 10000 steps...
[2019-07-12 07:15:49,216 INFO] Loading dataset from data/cnndm/CNNDM.train.0.pt
…
